…
ldquo;three&amp;rdquo;, &amp;hellip;, &amp;ldquo;zero&amp;rdquo;. The data for this project is taken from the TensorFlow Speech Recognition Challenge. However I have slightly deviated from the competition, in terms of the target classes, where I have truncated the target classes to the ones I mentioned above.
I trained 3 models on the data:
A baseline CNN model ==========================================================================================
Layer (type:depth-idx) Output Shape Param # ==========================================================================================
BaseModel [128, 10] -- ├─convblock: 1-1 [128, 16, 65, 23] -- │ └─Sequential: 2-1 [128, 16, 65, 23] -- │ │ └─Conv2d: 3-1 [128, 16, 130, 46] 160 │ │ └─ReLU: 3-2 [128, 16, 130, 46] -- │ │ └─MaxPool2d: 3-3 [128, 16, 65, 23] -- ├─convblock: 1-2 [128, 32, 33, 12] -- │ └─Sequential: 2-2 [128, 32, 33, 12] -- │ │ └─Conv2d: 3-4 [128, 32, 67, 25] 4,640 │ │ └─ReLU: 3-5 [128, 32, 67, 25] -- │ │ └─MaxPool2d: 3-6 [128, 32, 33, 12] -- ├─convblock: 1-3 [128, 64, 17, 7] -- │ └─Sequential: 2-3 [128, 64, 17, 7] -- │ │ └─Conv2d: 3-7 [128, 64, 35, 14] 18,496 │ │ └─ReLU: 3-8 [128, 64, 35, 14] -- │ │ └─MaxPool2d: 3-9 [128, 64, 17, 7] -- ├─convblock: 1-4 [128, 128, 9, 4] -- │ └─Sequential: 2-4 [128, 128, 9, 4] -- │ │ └─Conv2d: 3-10 [128, 128, 19, 9] 73,856 │ │ └─ReLU: 3-11 [128, 128, 19, 9] -- │ │ └─MaxPool2d: 3-12 [128, 128, 9, 4] -- ├─Flatten: 1-5 [128, 4608] -- ├─Linear: 1-6 [128, 10] 46,090 ├─Softmax: 1-7 [128, 10] -- ==========================================================================================
Total params: 143,242 Trainable params: 143,242 Non-trainable params: 0 Total mult-adds (G): 3.</description></item><item><title>Forests and Deforestation</title><link>https://roudranil.github.io/projects/visualisation/</link><pubDate>Wed, 09 Nov 2022 09:23:50 +0530</pubDate><guid>https://roudranil.github.i
…
