…
ree\u0026rdquo;, \u0026hellip;, \u0026ldquo;zero\u0026rdquo;. The data for this project is taken from the TensorFlow Speech Recognition Challenge. However I have slightly deviated from the competition, in terms of the target classes, where I have truncated the target classes to the ones I mentioned above.\nI trained 3 models on the data:\nA baseline CNN model ==========================================================================================\rLayer (type:depth-idx) Output Shape Param # ==========================================================================================\rBaseModel [128, 10] -- ├─convblock: 1-1 [128, 16, 65, 23] -- │ └─Sequential: 2-1 [128, 16, 65, 23] -- │ │ └─Conv2d: 3-1 [128, 16, 130, 46] 160 │ │ └─ReLU: 3-2 [128, 16, 130, 46] -- │ │ └─MaxPool2d: 3-3 [128, 16, 65, 23] -- ├─convblock: 1-2 [128, 32, 33, 12] -- │ └─Sequential: 2-2 [128, 32, 33, 12] -- │ │ └─Conv2d: 3-4 [128, 32, 67, 25] 4,640 │ │ └─ReLU: 3-5 [128, 32, 67, 25] -- │ │ └─MaxPool2d: 3-6 [128, 32, 33, 12] -- ├─convblock: 1-3 [128, 64, 17, 7] -- │ └─Sequential: 2-3 [128, 64, 17, 7] -- │ │ └─Conv2d: 3-7 [128, 64, 35, 14] 18,496 │ │ └─ReLU: 3-8 [128, 64, 35, 14] -- │ │ └─MaxPool2d: 3-9 [128, 64, 17, 7] -- ├─convblock: 1-4 [128, 128, 9, 4] -- │ └─Sequential: 2-4 [128, 128, 9, 4] -- │ │ └─Conv2d: 3-10 [128, 128, 19, 9] 73,856 │ │ └─ReLU: 3-11 [128, 128, 19, 9] -- │ │ └─MaxPool2d: 3-12 [128, 128, 9, 4] -- ├─Flatten: 1-5 [128, 4608] -- ├─Linear: 1-6 [128, 10] 46,090 ├─Softmax: 1-7 [128, 10] -- ==========================================================================================\rTotal params: 143,242 Trainable params: 143,242 Non-trainable params: 0 Total mult-adds (G): 3.90 ==========================================================================================\rInput size (MB): 2.88 Forward/backward pass size (MB): 207.40 Params size (MB): 0.57 Estimated Total Size (MB): 210.86 ========================================================================================== A CRNN Model, with a LSTM following a CNNBLock ==========================================================================================\rLayer (type:depth-idx) Output Shape Param #\r==========================================================================================\rCRNN [128, 10] --\r├─convbloc: 1-1 [128, 128, 22] --\r│ └─Sequential: 2-1 [128, 128, 22] --\r│ │ └─Conv1d: 3-1 [128, 128, 44] 82,048\r│ │ └─BatchNorm1d: 3-2 [128, 128, 44] 256\r│ │ └─ReLU: 3-3 [128, 128, 44] --\r│ │ └─MaxPool1d: 3-4 [128, 128, 22] --\r├─convbloc: 1-2 [128, 128, 11] --\r│ └─Sequential: 2-2 [128, 128, 11] --\r│ │ └─Conv1d: 3-5 [128, 128, 22] 82,048\r│ │ └─BatchNorm1d: 3-6 [128, 128, 22] 256\r│ │ └─ReLU: 3-7 [128, 128, 22] --\r│ │ └─MaxPool1d: 3-8 [128, 128, 11] --\r├─convbloc: 1-3 [128, 256, 5] --\r│ └─Sequential: 2-3 [128, 256, 5] --\r│ │ └─Conv1d: 3-9 [128, 256, 11] 164,096\r│ │ └─BatchNorm1d: 3-10 [128, 256, 11] 512\r│ │ └─ReLU: 3-11 [128, 256, 11] --\r│ │ └─MaxPool1d: 3-12 [128, 256, 5] --\r├─LSTM: 1-4 [128, 256, 96] 39,552\r├─Flatten: 1-5 [128, 24576] --\r├─Sequential: 1-6 [128, 64] --\r│ └─Linear: 2-4 [128, 64] 1,572,928\r│ └─ReLU: 2-5 [128, 64] --\r├─Linear: 1-7 [128, 10] 650\r├─Softmax: 1-8 [128, 10] --\r==========================================================================================\rTotal params: 1,942,346\rTrainable params: 1,942,346\rNon-trainable params: 0\rTotal mult-adds (G): 2.42\r==========================================================================================\rInput size (MB): 2.88\rForward/backward pass size (MB): 48.31\rParams size (MB): 7.77\rEstimated Total Size (MB): 58.96\r========================================================================================== A Parallel CNN-LSTM model, where we have the inputs go through 5 CNN blocks and a LSTM block parallely and then they are concatenated ==========================================================================================\rLayer (type:depth-idx) Output Shape Param #\r==========================================================================================\rParallelNet [128, 10] --\r├─CNNBLock: 1-1 [128, 16, 63, 22] --\r│ └─Sequential: 2-1 [128, 16, 63, 22] --\r│ │ └─Conv2d: 3-1 [128, 16, 126, 44] 64\r│ │ └─BatchNorm2d: 3-2 [128, 16, 126, 44] 32\r│ │ └─ReLU: 3-3 [128, 16, 126, 44] --\r│ │ └─MaxPool2d: 3-4 [128, 16, 63, 22] --\r├─CNNBLock: 1-2 [128, 32, 30, 11] --\r│ └─Sequential: 2-2 [128, 32, 30, 11] --\r│ │ └─Conv2d: 3-5 [128, 32, 61, 22] 1,568\r│ │ └─BatchNorm2d: 3-6 [128, 32, 61, 22] 64\r│ │ └─ReLU: 3-7 [128, 32, 61, 22] --\r│ │ └─MaxPool2d: 3-8 [128, 32, 30, 11] --\r├─CNNBLock: 1-3 [128, 64, 14, 5] --\r│ └─Sequential: 2-3 [128, 64, 14, 5] --\r│ │ └─Conv2d: 3-9 [128, 64, 28, 11] 6,208\r│ │ └─BatchNorm2d: 3-10 [128, 64, 28, 11] 128\r│ │ └─ReLU: 3-11 [128, 64, 28, 11] --\r│ │ └─MaxPool2d: 3-12 [128, 64, 14, 5] --\r├─CNNBLock: 1-4 [128, 64, 3, 1] --\r│ └─Sequential: 2-4 [128, 64, 3, 1] --\r│ │ └─Conv2d: 3-13 [128, 64, 12, 5] 12,352\r│ │ └─BatchNorm2d: 3-14 [128, 64, 12, 5] 128\r│ │ └─ReLU: 3-15 [128, 64, 12, 5] --\r│ │ └─MaxPool2d: 3-16 [128, 64, 3, 1] --\r├─Flatten: 1-5 [128, 192] --\r├─RNNBlock: 1-6 [128, 32, 256] --\r│ └─MaxPool2d: 2-5 [128, 1, 32, 22] --\r│ └─LSTM: 2-6 [128, 32, 256] 155,648\r├─Flatten: 1-7 [128, 8192] --\r├─Linear: 1-8 [128, 10] 83,850\r├─Softmax: 1-9 [128, 10] --\r==========================================================================================\rTotal params: 260,042\rTrainable params: 260,042\rNon-trainable params: 0\rTotal mult-adds (G): 1.30\r==========================================================================================\rInput size (MB): 2.88\rForward/backward pass size (MB): 326.25\rParams size (MB): 1.04\rEstimated Total Size (MB
…
ree\u0026rdquo;, \u0026hellip;, \u0026ldquo;zero\u0026rdquo;. The data for this project is taken from the TensorFlow Speech Recognition Challenge. However I have slightly deviated from the competition, in terms of the target classes, where I have truncated the target classes to the ones I mentioned above.\nI trained 3 models on the data:\nA baseline CNN model ==========================================================================================\rLayer (type:depth-idx) Output Shape Param # ==========================================================================================\rBaseModel [128, 10] -- ├─convblock: 1-1 [128, 16, 65, 23] -- │ └─Sequential: 2-1 [128, 16, 65, 23] -- │ │ └─Conv2d: 3-1 [128, 16, 130, 46] 160 │ │ └─ReLU: 3-2 [128, 16, 130, 46] -- │ │ └─MaxPool2d: 3-3 [128, 16, 65, 23] -- ├─convblock: 1-2 [128, 32, 33, 12] -- │ └─Sequential: 2-2 [128, 32, 33, 12] -- │ │ └─Conv2d: 3-4 [128, 32, 67, 25] 4,640 │ │ └─ReLU: 3-5 [128, 32, 67, 25] -- │ │ └─MaxPool2d: 3-6 [128, 32, 33, 12] -- ├─convblock: 1-3 [128, 64, 17, 7] -- │ └─Sequential: 2-3 [128, 64, 17, 7] -- │ │ └─Conv2d: 3-7 [128, 64, 35, 14] 18,496 │ │ └─ReLU: 3-8 [128, 64, 35, 14] -- │ │ └─MaxPool2d: 3-9 [128, 64, 17, 7] -- ├─convblock: 1-4 [128, 128, 9, 4] -- │ └─Sequential: 2-4 [128, 128, 9, 4] -- │ │ └─Conv2d: 3-10 [128, 128, 19, 9] 73,856 │ │ └─ReLU: 3-11 [128, 128, 19, 9] -- │ │ └─MaxPool2d: 3-12 [128, 128, 9, 4] -- ├─Flatten: 1-5 [128, 4608] -- ├─Linear: 1-6 [128, 10] 46,090 ├─Softmax: 1-7 [128, 10] -- ==========================================================================================\rTotal params: 143,242 Trainable params: 143,242 Non-trainable params: 0 Total mult-adds (G): 3.","title":"Audio Classification with CNN-LSTM networks"},{"content":"Synopsis In this project we explore the trends of deforestation in the past 3 decades. We use visualisation techniques in order to find pattern
…
